checkpoints/TextCNN-S.pt (torch, 709014 bytes, 9 tensors)

embedding.weight f4 [35093, 4]
-0.2716452 -0.099146105 -0.24065481 -0.053370193 -0.024561942 0.14554277 -0.14886414 0.088155635
-0.36939424 0.58875483 -0.58362484 -0.10778745 -0.2440137 -0.7409442 0.20279726 -0.19771354
0.68892986 -0.799504 0.2330887 0.7823523 1.9343827 0.0049467273 0.3665212 -0.23131771
0.9061886 -0.6507721 0.5938028 3.1070945 -0.024129132 0.11652556 -0.5136267 1.3771405
-0.11770944 -1.2118267 1.7672514 -0.5305937 -0.52144665 0.3285661 -0.4196889 -0.3371702
-0.702951 0.8943182 -0.23154862 -0.26486078 1.335233 1.3437839 1.3537965 0.37613562
0.8430329 -0.8859978 -0.28518477 -0.10616057 0.4599885 0.5646534 -1.7086158 -0.6385551
0.7341882 -1.2047725 0.048083488 -0.4171264 -1.3590457 -0.4065836 0.3205134 0.8081455
0.3697672 -0.10844204 -0.7266722 0.17067602 -1.5035567 2.6480398 0.016316313 0.053293634
0.24844138 -0.44685417 1.4796768 -0.52888244 -0.8121557 0.2517962 -0.36703098 0.7656379
1.46538 -0.23961335 0.14686683 -0.356836 0.36798477 0.45332658 -1.3733238 1.1838974
0.76756734 0.63538754 0.19487445 0.85700417 -0.16931812 -0.49787346 -0.3871376 -0.77024996
0.51789194 -0.2863534 0.35142043 -1.0515703 0.20715472 -0.17500192 0.69178635 1.85575
0.3853959 -1.5296255 0.3060355 -0.9335406 0.621057 -1.077584 0.46762794 0.31184345
1.6136833 0.3354021 0.123995334 0.57135123 0.0170294 -2.045318 2.6903536 -2.0551918
0.31240883 -0.88512653 -1.3051533 -0.42671457 -0.099721305 -0.20393838 1.7506484 -0.8564818
-0.73086286 0.31952134 0.18792248 -0.7853749 -1.1408386 1.5722377 -0.5180995 -0.20882227
-0.15875544 0.745171 0.76788837 0.69373524 1.0681506 -1.0979998 -0.794404 1.2924751
0.30031034 0.77760774 -1.819515 -0.050805867 -1.7038976 1.9030721 -0.2893563 -1.7877328
-0.7857836 0.82495904 -0.52653843 1.1815137 0.74031115 1.7058674 -0.43404374 -1.5883205
-1.6598219 0.42771864 -0.32853624 0.7307156 -0.81372523 -1.5784659 -0.31157276 -0.72844553
-0.4744184 0.22701849 -0.34105414 1.6034443 -1.0777184 0.8520287 -0.51355624 -0.2765167
-0.9361644 0.6419479 -0.37533662 0.16672389 0.87719446 0.93553895 -0.47114322 -0.29593343
-1.1085213 1.2050002 2.064725 -0.26700234 -0.51483476 -1.1937126 0.52277714 0.2884272
0.058693063 0.30582985 -0.4957967 -0.81480604 -0.9308985 0.80920374 0.13542384 0.20250218
1.6120955 -1.0597565 -0.196397 -0.11479123 0.98190135 -1.2469516 0.9483869 -0.7264914
-1.7408885 1.3162769 0.2828808 2.4063587 1.096548 0.89758104 1.083207 -0.8470319
-1.2021037 -0.55337137 -0.16546026 -1.635172 0.84009475 -1.2979878 0.106205545 -1.4832014
-0.3889628 -0.50347435 -0.36040437 0.022991735 -0.11328924 0.037829738 1.2907789 -0.55650693
-0.5157791 0.1250543 0.63791984 0.990658 1.1850181 -0.33702445 0.22088605 -0.7797012
0.21669659 -0.4769147 -0.5596701 2.2844088 -0.7697253 0.5587462 0.29497424 0.6858714
-0.35837692 -0.6564483 -1.0949973 1.6286985 1.8795946 0.48264092 -1.0356475 -0.015400069
00000000: 1415 8bbe 1d0d cbbd 376e 76be b49a 5abd
00000010: 2036 c9bc 2a09 153e d76f 18be f18a b43d
00000020: 3e21 bdbe a3b8 163f 7068 15bf abbf dcbd
00000030: bade 79be 85ae 3dbf 16aa 4f3e 6b75 4abe
00000040: b55d 303f 4bac 4cbf ceae 6e3e 3e48 483f
00000050: da99 f73f 2818 a23b aba8 bb3e 8dde 6cbe
00000060: fafb 673f 0099 26bf 7603 183f a3da 4640
00000070: 75aa c5bc f4a4 ee3d 0a7d 03bf 2446 b03f
00000080: a611 f1bd 231d 9bbf 4b35 e23f fdd4 07bf
00000090: 877d 05bf d139 a83e 77e1 d6be 93a1 acbe
000000a0: 99f4 33bf 0af2 643f 151b 6dbe d59b 87be
000000b0: eae8 aa3f 1c01 ac3f 3449 ad3f d994 c03e
000000c0: 01d1 573f c0d0 62bf bd03 92be b76a d9bd
000000d0: 9d83 eb3e 208d 103f ecb3 dabf 5978 23bf
000000e0: c2f3 3b3f fc35 9abf 31f3 443d 9791 d5be
000000f0: 36f5 adbf ba2b d0be 551a a43e a0e2 4e3f
00000100: 2052 bd3e dc16 debd 3007 3abf b2c5 2e3e
00000110: 8c74 c0bf 7c79 2940 caa9 853c 6d4a 5a3d
00000120: 6b67 7e3e 12ca e4be 0d66 bd3f d764 07bf
00000130: 70e9 4fbf 6eeb 803e 7ceb bbbe d800 443f
00000140: 9291 bb3f 345d 75be 4264 163e 35b3 b6be
00000150: 8068 bc3e 6c1a e83e 13c9 afbf f389 973f
00000160: 4b7f 443f c2a8 223f 2b8d 473e a064 5b3f
00000170: bb61 2dbe 45e9 febe e636 c6be 1a2f 45bf
00000180: 9194 043f ea9c 92be 61ed b33e db99 86bf
00000190: 5e20 543e b433 33be e918 313f 3789 ed3f
000001a0: 9d52 c53e c5ca c3bf afb0 9c3e 84fc 6ebf
000001b0: 97fd 1e3f 46ee 89bf ee6c ef3e f2a9 9f3e
000001c0: 2d8d ce3f d3b9 ab3e 44f1 fd3d 1344 123f
000001d0: 3e81 8b3c 7de6 02c0 c12e 2c40 4388 03c0
000001e0: 0df4 9f3e a797 62bf 430f a7bf 557a dabe
000001f0: af3a ccbd 39d5 50be 3f15 e03f 6442 5bbf
00000200: d419 3bbf 4d98 a33e c06e 403e 540e 49bf
00000210: 0007 92bf 163f c93f 2ba2 04bf 81d5 55be
00000220: c990 22be 87c3 3e3f 5594 443f a298 313f
00000230: 29b9 883f 428b 8cbf 0f5e 4bbf d36f a53f
00000240: 47c2 993e 4d11 473f dee5 e8bf d019 50bd
00000250: 5119 dabf de97 f33f 8226 94be 6ed4 e4bf
00000260: 1d29 49bf 8430 533f 39cb 06bf d73b 973f
00000270: 0885 3d3f dd59 da3f fb3a debe 164e cbbf
00000280: 0b75 d4bf f0fd da3e e735 a8be 2d10 3b3f
00000290: 4c50 50bf 2c0b cabf 7786 9fbe 687b 3abf
000002a0: f8e6 f2be 8977 683e a69e aebe aa3d cd3f
000002b0: adf2 89bf 8e1e 5a3f 6c78 03bf 9993 8dbe
000002c0: 78a8 6fbf b356 243f 1f2c c0be abb9 2a3e
000002d0: d18f 603f 7b7f 6f3f af39 f1be 9684 97be
000002e0: 07e4 8dbf 723d 9a3f 7424 0440 88b4 88be
000002f0: 36cc 03bf 93cb 98bf b9d4 053f bbac 933e
00000300: 2368 703d bb95 9c3e 11d9 fdbe 2197 50bf
00000310: 5d4f 6ebf fa27 4f3f 8cac 0a3e bb5c 4f3e
00000320: 2559 ce3f 1aa6 87bf 4c1c 49be aa17 ebbd
00000330: e35d 7b3f 1c9c 9fbf 7cc9 723f 57fb 39bf
00000340: 6fd5 debf c37b a83f c1d5 903e c801 1a40
00000350: af5b 8c3f dfc7 653f 87a6 8a3f 15d7 58bf
00000360: 89de 99bf bfa9 0dbf 6a6e 29be 514d d1bf
00000370: 7310 573f 7724 a6bf 4b82 d93d 8bd9 bdbf
00000380: 2226 c7be b2e3 00bf ec86 b8be 2a59 bc3c
00000390: 3004 e8bd 5bf3 1a3d 3e38 a53f 3d77 0ebf
000003a0: 190a 04bf 3c0e 003e b74e 233f c39b 7d3f
000003b0: acae 973f 788e acbe f42f 623e 7f9a 47bf
000003c0: b6e5 5d3e 2a2e f4be 8a46 0fbf c133 1240
000003d0: b80c 45bf fe09 0f3f dd06 973e 4595 2f3f
000003e0: 2e7d b7be ff0c 28bf df28 8cbf 3179 d03f
000003f0: 8e96 f03f b61c f73e 1990 84bf 9250 7cbc

conv.0.weight f4 [128, 4, 2]
0.05513973 0.11407452 -0.23589434 0.11161285 0.22925279 -0.15774874 -0.14317665 0.14916125
-0.1709919 0.31284884 0.1248681 -0.25589716 0.06894088 0.2965076 -0.056418635 0.045814335
0.046769083 -0.1403314 -0.05002295 0.2880146 -0.20225056 0.27067873 0.12010294 -0.07050242
0.039621875 -0.21467085 0.23087329 -0.25623664 0.10347927 -0.11560833 0.3282496 0.05989211
0.069812275 0.19478895 -0.23888129 0.1589959 0.15701015 0.030233387 -0.009279485 -0.28183052
0.19528662 0.06874726 -0.2897959 0.19099844 0.09096351 -0.16711329 -0.14847785 -0.25742394
0.008813515 -0.09524669 0.27673367 0.19904749 0.09951282 0.2998782 0.06285728 0.16943663
0.044082507 -0.037915185 0.17531471 0.15169333 -0.32640862 -0.10602343 -0.18564315 -0.11439773
-0.2203726 -0.07918952 -0.2819217 0.16418852 -0.11995132 0.18523544 -0.027633503 0.05283453
-0.018391358 -0.15551573 0.1369351 -0.28371623 0.16032322 -0.17573841 0.27563167 0.021038285
0.10455848 -0.0077136504 0.21498007 0.095748 -0.24176078 -0.14045928 -0.17013566 -0.062346537
-0.106726535 0.018068457 0.2403675 -0.23920667 -0.21542123 0.16685097 -0.11701529 -0.1206458
-0.21556936 0.35776156 0.16850436 0.22640887 -0.12190708 0.12670656 -0.030743122 -0.15378788
-0.22530368 0.023224283 0.077917114 -0.25753623 0.123172976 -0.20133139 -0.19480643 -0.154571
0.13330072 0.27082872 -0.24086577 -0.0021861182 0.23134485 0.23812595 -0.03881723 -0.09631428
-0.07537698 -0.09310907 -0.007897291 0.18624553 -0.086584 -0.061802134 0.06278097 0.12599854
0.1438442 -0.15773273 0.13987254 -0.2399828 0.05174488 -0.21895778 -0.15667759 0.12670334
-0.16636266 -0.31374758 -0.12393103 -0.1782904 -0.07894872 -0.102530725 0.019134961 -0.20189624
-0.18010184 -0.1436275 0.22279923 -0.029897816 0.26713005 0.18210565 0.18012917 0.16310474
-0.17217728 -0.21289462 0.05635885 -0.20267089 0.106157675 -0.08585185 0.0882749 -0.20034155
0.045949865 0.03599125 0.12951891 0.14544198 -0.051667824 -0.2897624 -0.08449581 -0.16807589
-0.079449505 0.16950051 0.044887617 0.2997954 0.09304216 -0.34248313 -0.112404875 -0.20819692
-0.0683326 -0.105126224 0.24432077 0.19673082 0.16826694 0.3172081 0.062464528 0.16731064
0.008456452 0.21994264 -0.21072988 0.15466641 0.13543424 0.060589146 -0.01799181 -0.13579977
0.06661931 0.073028 0.3248686 -0.07462426 -0.42006716 -0.091779985 -0.28655794 -0.13827701
0.107625715 -0.1463763 0.22399676 0.12219804 -0.020674907 0.3070856 0.1710206 0.20351216
0.04183604 0.28270063 -0.017383715 -0.18614109 0.18698479 0.13206881 -0.10157581 0.06579003
-0.1564943 0.09014521 0.23517118 -0.07802149 -0.21965706 0.21221319 -0.13370489 -0.2563202
-0.058964517 -0.11120223 0.18583815 0.15128171 0.15530059 0.24173038 0.090785384 0.13910817
-0.20570816 -0.17514545 0.23302919 0.029050361 0.22777256 0.23201299 0.091050535 0.12421057
0.15040351 0.327578 -0.18762852 -0.24454635 0.23132636 0.14688155 -0.1209617 0.05330847
0.10450678 0.3301741 -6.128933e-05 -0.1841962 0.33825067 0.20337579 -0.06863871 -0.00065262034
00000000: 33da 613d e79f e93d 498e 71be 4795 e43d
00000010: 3ec1 6a3e e388 21be e69c 12be babd 183e
00000020: 8018 2fbe b92d a03e d9ba ff3d f404 83be
00000030: e030 8d3d d8cf 973e 3a17 67bd d0a7 3b3d
00000040: f090 3f3d 09b3 0fbe dde4 4cbd a676 933e
00000050: c51a 4fbe 6796 8a3e 88f8 f53d 9363 90bd
00000060: 8c4a 223d add2 5bbe 0c6a 6c3e 7331 83be
00000070: f1ec d33d 0fc4 ecbd 5510 a83e 6e51 753d
00000080: bdf9 8e3d c176 473e 4c9d 74be d2cf 223e
00000090: 45c7 203e 02ac f73c fb08 18bc 174c 90be
000000a0: 37f9 473e 5dcb 8c3d 2160 94be 1895 433e
000000b0: 144b ba3d bf1f 2bbe 940a 18be 12cd 83be
000000c0: 9066 103c b210 c3bd 09b0 8d3e 1bd3 4b3e
000000d0: 61cd cb3d a389 993e 51bb 803d cc80 2d3e
000000e0: dc8f 343d f44c 1bbd b385 333e 7f55 1b3e
000000f0: 081f a7be d022 d9bd 3d19 3ebe 5b49 eabd
00000100: 5ba9 61be 1d2e a2bd 0b58 90be 0921 283e
00000110: 0aa9 f5bd 5cae 3d3e a85f e2bc 0569 583d
00000120: 79a9 96bc 843f 1fbe b738 0c3e 4143 91be
00000130: c52b 243e c5f4 33be 981f 8d3e 7b58 ac3c
00000140: c222 d63d cac2 fcbb bc23 5c3e 8717 c43d
00000150: 2390 77be 8fd4 0fbe 0b38 2ebe 155f 7fbd
00000160: 7193 dabd 4d04 943c e622 763e 98f2 74be
00000170: 6297 5cbe fbda 2a3e b6a5 efbd 2515 f7bd
00000180: 37be 5cbe 862c b73e 688c 2c3e bad7 673e
00000190: 6baa f9bd 5dbf 013e 00d9 fbbc 927a 1dbe
000001a0: 02b6 66be da40 be3c 0293 9f3d cadb 83be
000001b0: 1d42 fc3d d129 4ebe 567b 47be dc47 1ebe
000001c0: fc7f 083e 10aa 8a3e 84a5 76be fa44 0fbb
000001d0: aae5 6c3e 4ad7 733e d1fe 1ebd 6c40 c5bd
000001e0: 3f5f 9abd f8af bebd a463 01bc 26b7 3e3e
000001f0: f452 b1bd 3c24 7dbd 4f93 803d c305 013e
00000200: e54b 133e b084 21be bf3a 0f3e 0dbe 75be
00000210: 70f2 533d 7836 60be 1770 20be 85be 013e
00000220: f95a 2abe 86a3 a0be 8dcf fdbd c291 36be
00000230: deaf a1bd a1fb d1bd ecc0 9c3c e3bd 4ebe
00000240: 9e6c 38be 1613 13be 7b25 643e 44ec f4bc
00000250: 45c5 883e e779 3a3e c873 383e ee04 273e
00000260: 3e4f 30be 0c01 5abe 8ad8 663d f588 4fbe
00000270: 3269 d93d 18d3 afbd 79c9 b43d 5626 4dbe
00000280: ed35 3c3d 906b 133d 9ba0 043e beee 143e
00000290: a4a1 53bd bd5b 94be 240c adbd 161c 2cbe
000002a0: 6cb6 a2bd 8b91 2d3e 14dc 373d c87e 993e
000002b0: e38c be3d f359 afbe 8734 e6bd 9331 55be
000002c0: f6f1 8bbd 6b4c d7bd 392f 7a3e ce73 493e
000002d0: 2b4e 2c3e 1a69 a23e ceda 7f3d 7b53 2b3e
000002e0: ee8c 0a3c a538 613e 93c9 57be df60 1e3e
000002f0: 46af 0a3e 532c 783d 8f63 93bc 180f 0bbe
00000300: b46f 883d b48f 953d 2d55 a63e 9bd4 98bd
00000310: 0b13 d7be 25f7 bbbd b9b7 92be 7d98 0dbe
00000320: df6a dc3d abe3 15be 685f 653e f742 fa3d
00000330: 6c5e a9bc 533a 9d3e 0620 2f3e 7e65 503e
00000340: 445c 2b3d 23be 903e 4b68 8ebc c59b 3ebe
00000350: f178 3f3e 0c3d 073e fa06 d0bd ecbc 863d
00000360: 0b40 20be 0d9e b83d b7d0 703e bbc9 9fbd
00000370: c8ed 60be 6a4e 593e efe9 08be 673c 83be
00000380: c784 71bd ffbd e3bd 5b4c 3e3e 98e9 1a3e
00000390: 1e07 1f3e 2b88 773e b0ed b93d 5f72 0e3e
000003a0: 29a5 52be 5459 33be 349f 6e3e 06fb ed3c
000003b0: 363d 693e d094 6d3e b478 ba3d 1c62 fe3d
000003c0: 6103 1a3e 4eb8 a73e b121 40be 5c6a 7abe
000003d0: d1e0 6c3e 1e68 163e c5ba f7bd fb59 5a3d
000003e0: a707 d63d 940c a93e 7588 80b8 ee9d 3cbe
000003f0: 312f ad3e be41 503e 7492 8cbd 9c14 2bba

conv.0.bias f4 [128]
0.047009252 -0.23064537 -0.07978757 -0.38295943 -0.29290712 -0.3805998 -0.7217953 -0.42427877
-0.7178308 -0.30542895 -0.5397726 -0.4336526 -0.0681921 -0.05878703 -0.03081533 0.15103376
-0.042506807 0.04732987 -0.15214619 -0.5771486 -0.44245085 0.14405382 -0.776413 0.12474714
-0.11628761 0.0014683829 -0.28275433 -0.41030657 -0.43016708 -0.6631512 -0.14191006 0.029023686
-0.20699397 0.07830393 -0.18942279 -0.13857341 -0.13002484 -0.6463843 -0.6239395 -0.058388386
-0.4716058 -0.16840625 -0.5356706 -0.32813326 0.07369307 -0.2143055 -0.07344911 0.15362896
-0.31993774 0.058002673 -0.65594095 0.12210193 -0.42454755 -0.5805611 0.0316262 -0.55032426
-0.14469945 -0.010952315 -0.10547297 -0.3516825 -0.049889077 -0.46168557 -0.4033591 -0.3742419
0.04559631 0.13710134 -0.03885776 -0.2119672 -0.3510628 0.11196997 -0.60841215 -0.20124222
0.076812364 -0.014409323 -0.5454661 -0.119177304 -0.45659757 -0.41062558 -0.41851336 -0.32388806
-0.26242864 -0.54713786 -0.2840832 -0.5235093 -0.11985741 -0.05177585 -0.13847214 -0.535305
-0.580729 0.021431753 -0.36189535 -0.43038642 0.0027977228 -0.54326034 -0.5189742 -0.34137937
-0.5239508 -0.3192681 -0.72179335 -0.46860728 0.15937327 -0.32366684 -0.717261 -0.054860383
-0.34551635 -0.07065747 0.100423954 -0.45984337 -0.5248139 -0.32116437 -0.41829327 0.024783036
-0.63018435 -0.54166967 -0.10975628 -0.62938905 -0.5303502 -0.27560082 -0.40996155 -0.1795595
-0.023147605 -0.4830536 -0.54393786 -0.24976797 -0.48034185 -0.3917145 -0.51973045 -0.7205094
00000000: c68c 403d 4d2e 6cbe aa67 a3bd 4213 c4be
00000010: ecf7 95be fadd c2be 94c7 38bf 113b d9be
00000020: c2c3 37bf 2f61 9cbe 8a2e 0abf b707 debe
00000030: 4da8 8bbd abca 70bd 6e70 fcbc 98a8 1a3e
00000040: 9e1b 2ebd f7dc 413d 36cc 1bbe 03c0 13bf
00000050: eb88 e2be d882 133e 01c3 46bf 6e7b ff3d
00000060: 3328 eebd c176 c03a 2dc5 90be b413 d2be
00000070: dc3e dcbe 47c4 29bf df50 11be 15c3 ed3c
00000080: 3af6 53be d05d a03d 0cf8 41be 30e6 0dbe
00000090: 3b25 05be 7179 25bf 80ba 1fbf a928 6fbd
000000a0: 5176 f1be b072 2cbe b521 09bf 1501 a8be
000000b0: 64ec 963d e772 5bbe 7d6c 96bd e950 1d3e
000000c0: e1ce a3be 3694 6d3d bfeb 27bf 9410 fa3d
000000d0: 4c5e d9be a79f 14bf 798a 013d 0de2 0cbf
000000e0: 182c 14be 5771 33bc 3602 d8bd bb0f b4be
000000f0: 7d58 4cbd 0d62 ecbe 1585 cebe a29c bfbe
00000100: 32c3 3a3d 4b64 0c3e 5129 1fbd ee0d 59be
00000110: 81be b3be 8350 e53d e6c0 1bbf 7112 4ebe
00000120: cd4f 9d3d 1515 6cbc aba3 0bbf 3b13 f4bd
00000130: 28c7 e9be 843d d2be 6247 d6be a8d4 a5be
00000140: 0c5d 86be 3a11 0cbf 5a73 91be b504 06bf
00000150: cd77 f5bd ea12 54bd a4cb 0dbe c009 09bf
00000160: a8aa 14bf a591 af3c 594a b9be 9c5b dcbe
00000170: 005a 373b 1c13 0bbf 7edb 04bf 47c9 aebe
00000180: a421 06bf 1c77 a3be 73c7 38bf 4bed efbe
00000190: bf32 233e a9b7 a5be 6b9e 37bf 48b5 60bd
000001a0: 85e7 b0be ddb4 90bd 13ab cd3d 9770 ebbe
000001b0: 345a 06bf a86f a4be 892a d6be cb05 cb3c
000001c0: c353 21bf ddaa 0abf e7c7 e0bd a41f 21bf
000001d0: 08c5 07bf 8d1b 8dbe 7be6 d1be 72de 37be
000001e0: 0ca0 bdbc cd52 f7be 833f 0bbf 2dc3 7fbe
000001f0: 5eef f5be ce8e c8be 0e0d 05bf 4e73 38bf

conv.1.weight f4 [128, 4, 3]
0.27754977 0.043224182 0.014768457 -0.20182817 -0.07441627 0.050064463 0.21561064 -0.054876603
-0.06368961 -0.038996227 -0.27583358 -0.08703025 -0.14382087 -0.24241842 0.013072197 0.038866136
-0.27033988 0.046784736 0.06993775 -0.10886577 -0.009685809 0.15167977 -0.22405875 0.099194475
-0.01873364 -0.07048335 -0.15392645 0.24656072 0.11248512 0.22435819 0.11775128 0.10641131
0.20331228 0.008039896 0.1747578 -0.029272564 -0.06293082 -0.14026628 -0.07815226 0.15057077
-0.2692185 0.1589173 0.14148046 -0.15988055 0.18016365 0.04362908 0.043896053 0.11180836
0.19531308 0.065770455 -0.25968802 0.058726948 -0.17723 0.27729 -0.22994108 -0.011902146
-0.3167078 -0.11702512 -0.00969102 -0.06135806 -0.2162987 -0.20449568 -0.15174563 0.23181222
-0.034670547 0.07287691 0.22341058 0.17802837 0.08599745 0.07168172 0.11978274 -0.0033793298
0.17378199 0.16275355 0.043657206 -0.16937634 -0.07807617 -0.13103987 0.20073014 0.1342472
0.101943985 -0.0029852805 -0.11696522 -0.11378571 0.20386598 0.20088357 -0.021514637 -0.13032028
-0.10685282 0.17689027 0.22607099 0.18489997 -0.14938071 -0.08153551 0.02954777 -0.008705204
-0.04944459 -0.24762 -0.24020746 0.18328644 0.20302314 -0.14638272 0.11778507 0.25360012
0.010095819 0.09616578 0.043094836 -0.098488025 -0.10867326 0.15428947 -0.026799275 0.0678514
0.10737231 0.11990453 -0.030966407 0.025300074 -0.22142862 -0.04868295 0.039716363 -0.22257085
-0.10240298 -0.066230945 -0.09782174 -0.24026059 0.14273444 -0.09986919 -0.19762439 0.1258845
0.012354271 0.044630338 -0.009279452 0.15001903 -0.16489914 -0.1563717 -0.15834206 -0.08348936
0.15043236 -0.19697662 -0.02010212 0.17492966 -0.07918463 0.08118031 -0.0028498522 -0.04693978
0.12217757 -0.015597732 0.14880972 0.122917406 -0.24495423 0.004301362 0.044236213 0.21197172
0.1535365 -0.036348313 -0.11571736 -0.119254366 0.16885495 -0.17774202 0.29052442 -0.040413797
0.11515357 0.16917771 0.084213875 -0.047708202 0.0006441226 -0.037131134 0.012579382 -0.015257776
-0.03677937 -0.1157887 -0.022409186 0.03953472 -0.25473532 0.079692915 0.10840108 -0.14967823
0.054942407 0.11342141 -0.04209705 0.08590729 -0.059645608 -0.20200284 -0.0031443946 0.08918688
-0.10949282 -0.062570214 0.024625735 -0.027359439 -0.069556534 0.14647397 -0.14763531 -0.0072837085
0.14778517 -0.15403081 0.01870058 -0.1193088 0.19105259 0.1230449 0.13651219 -0.20571886
0.016964436 -0.11213805 -0.19756584 -0.20485988 -0.043283533 0.025346644 0.049070153 0.1896667
0.010962191 -0.24868953 -0.25306094 -0.038926937 0.22081041 -0.19517358 -0.040644277 -0.14293483
-0.042438433 -0.14870359 -0.2044257 0.16974905 -0.038060583 -0.21894574 0.009670727 -0.03780892
-0.1899401 0.115852386 -0.12011854 -0.20766345 0.016914891 -0.17059715 -0.124736466 0.1838247
0.24864542 -0.060621027 -0.02593387 0.23910065 0.028032651 0.096584216 -0.04310059 0.0185322
-0.06216599 -0.11784379 -0.15963511 0.19898255 0.15536532 0.026216766 0.15918209 0.17847241
0.04377608 0.05788502 0.14525256 0.0108050965 0.05361915 -0.021328297 -0.037915133 0.23020305
00000000: 011b 8e3e d70b 313d 66f7 713c 0bac 4ebe
00000010: 8f67 98bd 6510 4d3d 09c9 5c3e 4ac6 60bd
00000020: b36f 82bd 82ba 1fbd 0f3a 8dbe ea3c b2bd
00000030: c745 13be 893c 78be c52c 563c 1932 1f3d
00000040: fd69 8abe 5aa1 3f3d 863b 8f3d 04f5 debd
00000050: 3ab1 1ebc f151 1b3e a86f 65be 7926 cb3d
00000060: 4a77 99bc 9359 90bd e59e 1dbe 6a7a 7c3e
00000070: 995e e63d 27be 653e 9527 f13d 2cee d93d
00000080: 1831 503e c5b9 033c b5f3 323e 04cd efbc
00000090: e0e1 80bd f7a1 0fbe 4b0e a0bd 392f 1a3e
000000a0: 02d7 89be 37bb 223e 41e0 103e bab7 23be
000000b0: d27c 383e 68b4 323d 59cc 333d c8fb e43d
000000c0: 2700 483e a9b2 863d d4f5 84be ab8b 703d
000000d0: c87b 35be f4f8 8d3e ad75 6bbe 3801 43bc
000000e0: 8627 a2be deaa efbd 15c7 1ebc 9752 7bbd
000000f0: 687d 5dbe 5167 51be 3563 1bbe 2f60 6d3e
00000100: b402 0ebd 7d40 953d bec5 643e 124d 363e
00000110: 6e1f b03d decd 923d a750 f53d bf77 5dbb
00000120: e8f3 313e dea8 263e e6d1 323d fe70 2dbe
00000130: 66e6 9fbd 512f 06be 348c 4d3e 1978 093e
00000140: 02c8 d03d b2a4 43bb 768b efbd 7b08 e9bd
00000150: 3ec2 503e 6cb4 4d3e 773f b0bc ae72 05be
00000160: a7d5 dabd b922 353e 277f 673e 6b56 3d3e
00000170: 42f7 18be 17fc a6bd 2a0e f23c 46a0 0ebc
00000180: 6986 4abd 1990 7dbe f2f8 75be 71af 3b3e
00000190: 4ce5 4f3e 5ae5 15be 4c39 f13d e0d7 813e
000001a0: ef68 253c 91f2 c43d 3684 303d 17b4 c9bd
000001b0: 1690 debd 0ffe 1d3e 278a dbbc adf5 8a3d
000001c0: 03e6 db3d 8290 f53d 43ad fdbc 1a42 cf3c
000001d0: 2fbe 62be c667 47bd a0ad 223d 9de9 63be
000001e0: a7b8 d1bd 17a4 87bd c456 c8bd df06 76be
000001f0: fa28 123e 3888 ccbd 0c5e 4abe dee7 003e
00000200: 9169 4a3c 4dce 363d d808 18bc 979e 193e
00000210: 52db 28be e71f 20be 6c24 22be 78fc aabd
00000220: f10a 1a3e 3db4 49be 33ad a4bc c320 333e
00000230: 8d2b a2bd dd41 a63d 96c4 3abb ed43 40bd
00000240: 3c38 fa3d a18d 7fbc 9361 183e 1fbc fb3d
00000250: 48d5 7abe 71f2 8c3b 0831 353d 1d0f 593e
00000260: ac38 1d3e f8e1 14bd 39fd ecbd a23b f4bd
00000270: 50e8 2c3e 0102 36be 9ebf 943e f088 25bd
00000280: a3d5 eb3d ec3c 2d3e 5378 ac3d ad69 43bd
00000290: 56da 283a d116 18bd c119 4e3c c0fb 79bc
000002a0: f7a5 16bd a022 edbd 7893 b7bc 29ef 213d
000002b0: ab6c 82be 0a36 a33d 6301 de3d 4045 19be
000002c0: 4a0b 613d 7c49 e83d f56d 2cbd 29f0 af3d
000002d0: f44e 74bd d5d9 4ebe 3012 4ebb 9ca7 b63d
000002e0: c63d e0bd d024 80bd e9bb c93c e720 e0bc
000002f0: a873 8ebd 46fd 153e b62d 17be 2dac eebb
00000300: ff54 173e 41ba 1dbe f531 993c 2c58 f4bd
00000310: 4aa3 433e f7fe fb3d dac9 0b3e f7a7 52be
00000320: 00f9 8a3c a2a8 e5bd b34e 4abe cac6 51be
00000330: 134a 31bd c4a3 cf3c c9fd 483d fd37 423e
00000340: c39a 333c 78a8 7ebe 3491 81be da71 1fbd
00000350: 201c 623e 95db 47be 9d7a 26bd 825d 12be
00000360: ecd3 2dbd c145 18be f854 51be b2d2 2d3e
00000370: 6ae5 1bbd 5033 60be f871 1e3c 87dd 1abd
00000380: a87f 42be 0444 ed3d b600 f6bd baa5 54be
00000390: 1991 8a3c 05b1 2ebe d575 ffbd 8b3c 3c3e
000003a0: e89c 7e3e c14d 78bd 4473 d4bc cdd6 743e
000003b0: bba4 e53c f2cd c53d 3f8a 30bd d7d0 973c
000003c0: c4a1 7ebd 1658 f1bd 6377 23be 15c2 4b3e
000003d0: 1618 1f3e 8bc4 d63c a100 233e 79c1 363e
000003e0: 8c4e 333d d818 6d3d 16bd 143e dc07 313c
000003f0: c19f 5b3d aeb8 aebc e64c 1bbd 59ba 6b3e

conv.1.bias f4 [128]
-0.20228434 -0.6051723 -0.6324679 -0.4281865 -0.19183566 -0.41422483 -0.53240514 -0.08204414
-0.7188891 -0.17950755 -0.59110713 -0.25746283 -0.31124178 -0.33126357 -0.08905562 -0.21338785
-0.6041821 -0.019555718 -0.084679514 -0.59147733 -0.51236635 -0.42755243 -0.12854865 -0.29165864
-0.33621147 -0.42926368 -0.042192057 -0.1594359 -0.53584087 -0.06265367 -0.10163774 -0.5681674
-0.18069449 -0.10335164 -0.42298254 -0.07320559 -0.59062815 -0.43279988 -0.322095 0.035444926
-0.17234032 -0.29820248 -0.41882002 -0.09282506 -0.67636436 -0.6139023 -0.509378 -0.4931372
-0.31855 -0.1412055 -0.15902905 -0.3786875 -0.6676728 -0.3303159 -0.39013064 -0.11697453
-0.20369397 -0.083171636 -0.15069726 -0.6062096 -0.4941661 -0.37283045 -0.15874845 -0.32959267
-0.5434759 -0.27114487 -0.67330223 -0.28720167 -0.6511082 -0.65487635 -0.29750198 -0.45140427
-0.34849122 -0.4337245 -0.3573641 -0.095308274 -0.44658193 -0.38952526 -0.5891813 -0.0077015324
-0.072284184 -0.21870263 -0.06994028 -0.22963406 -0.49767214 -0.3844348 -0.41264918 -0.35196295
-0.004026988 -0.24130955 -0.55092084 -0.186717 -0.47985598 -0.27392688 -0.17561828 -0.3138198
-0.29068485 -0.73724306 -0.33277282 -0.6254432 -0.6324511 -0.016447993 -0.21505547 -0.37188584
-0.33861655 -0.15123907 -0.6416924 -0.51263446 -0.35671622 -0.11143036 -0.40834522 -0.5884729
-0.666629 0.018018046 -0.3610085 -0.28475434 -0.08732049 -0.35696292 -0.0023294392 -0.1741133
-0.089788154 -0.23334217 -0.32626453 -0.6204802 0.03362375 -0.5841727 -0.19914897 -0.21479928
00000000: a023 4fbe 92ec 1abf 6be9 21bf 433b dbbe
00000010: 9170 44be 4715 d4be b44b 08bf c206 a8bd
00000020: 1e09 38bf d4d0 37be cc52 17bf 2bd2 83be
00000030: 155b 9fbe 619b a9be cb62 b6bd 5882 5abe
00000040: aeab 1abf 5033 a0bc 746c adbd 0f6b 17bf
00000050: 712a 03bf 27e8 dabe 42a2 03be 4854 95be
00000060: e923 acbe 73c8 dbbe 94d1 2cbd 2a43 23be
00000070: de2c 09bf 9150 80bd 7327 d0bd 6b73 11bf
00000080: fa07 39be 06aa d3bd 2b91 d8be d0ec 95bd
00000090: 6833 17bf f297 ddbe a3e9 a4be b32e 113d
000000a0: fb79 30be ffad 98be 946f d6be 111b bebd
000000b0: 3726 2dbf b328 1dbf 9966 02bf 7b7c fcbe
000000c0: fc18 a3be 2d98 10be 83d8 22be 54e3 c1be
000000d0: 9bec 2abf 2a1f a9be 34bf c7be 5890 efbd
000000e0: 2795 50be e455 aabd 6250 1abe 8d30 1bbf
000000f0: 5703 fdbe a2e3 bebe f48e 22be 5fc0 a8be
00000100: 3d21 0bbf 80d3 8abe 895d 2cbf 190c 93be
00000110: 07af 26bf faa5 27bf 2e52 98be 761e e7be
00000120: 716d b2be 2311 debe 6df8 b6be fc30 c3bd
00000130: 63a6 e4be db6f c7be 96d4 16bf 235d fcbb
00000140: bb09 94bd 95f3 5fbe d93c 8fbd 3125 6bbe
00000150: e2ce febe a3d4 c4be c146 d3be 7d34 b4be
00000160: d3f4 83bb da19 77be 2609 0dbf be32 3fbe
00000170: afaf f5be 2540 8cbe 47d5 33be fdac a0be
00000180: a5d4 94be f6bb 3cbf 3361 aabe 0c1d 20bf
00000190: 51e8 21bf f1bd 86bc 8037 5cbe d267 bebe
000001a0: 265f adbe 6ade 1abe f445 24bf 033c 03bf
000001b0: 82a3 b6be 9a35 e4bd a012 d1be 29a6 16bf
000001c0: 33a8 2abf 959a 933c 1bd6 b8be 52cb 91be
000001d0: 16d5 b2bd d8c3 b6be 81a9 18bb c24a 32be
000001e0: dae2 b7bd 40f1 6ebe 250c a7be cad7 1ebf
000001f0: 0fb9 093d 588c 15bf b5ed 4bbe 58f4 5bbe

fc1.weight f4 [128, 256]
-0.076790534 -0.026271254 0.037638623 0.08240052 0.069645256 0.043909945 0.06950683 0.009524539
-0.10246226 -0.15679535 0.058299877 0.07757207 0.05146628 -0.11815023 -0.10095349 -0.06548165
-0.103010096 -0.062486395 0.049948797 -0.06734202 0.05513512 0.09594512 -0.11179786 -0.13354982
-0.058226157 0.06342112 -0.012821595 0.035133664 -0.071708135 0.038366094 -0.06330318 -0.01640415
-0.07101469 -0.04195564 0.04983019 0.003515357 0.012441686 -0.110910006 -0.009644533 -0.11676085
-0.0885944 0.0802064 -0.0298336 0.040064383 -0.11389311 -0.0953498 -0.05867645 -0.1243925
0.0042342506 0.098521575 -0.02493484 0.010152511 0.055896074 -0.13841301 -0.13397865 -0.05349115
-0.06999135 -0.13099962 -0.046795275 -0.12197573 -0.09830046 0.04572324 -0.03335916 -0.03074731
0.015904514 0.027022736 0.08031596 -0.12266674 -0.09297893 0.008216375 0.019041216 -0.10064774
-0.112264484 0.09519552 -0.011783694 0.08250252 -0.09525614 -0.002685273 0.0212032 0.06329165
-0.022394013 -0.0021685215 -0.052147415 -0.1052531 -0.14144541 -0.13859744 0.05093475 -0.13123444
0.060930695 0.055005085 0.09183331 0.073312104 -0.12647465 -0.09596784 -0.07618336 -0.018302854
-0.07980547 0.053100184 -0.08021347 0.07469783 -0.071382396 0.08915547 0.08433612 0.02580626
0.05438497 0.09023808 -0.05913745 -0.04245948 -0.0045762802 -0.0019862067 -0.1285555 -0.02639694
0.085576765 -0.1117651 0.09152684 -0.110414095 0.004316369 -0.069169685 0.09763653 -0.1297328
-0.08401973 -0.011401044 0.018186336 -0.032821108 -0.04442921 -0.013887867 -0.02875163 -0.10979718
-0.009008094 -0.030709758 0.0045196367 -0.014143154 -0.034103386 0.048945125 0.008510795 -0.045836933
-0.016506674 -0.0520355 0.05121945 -0.08072762 -0.03370968 -0.092644915 0.018476963 0.07662099
-0.007035736 -0.09320046 -0.020877557 -0.04213198 -0.06259518 -0.050478075 -0.12139568 0.0010224489
-0.113402754 -0.028411644 0.03580838 0.025864838 0.035786964 0.047607552 -0.10986193 0.049358215
-0.07530062 -0.11475324 -0.016776491 0.02835331 0.038914405 -0.1016035 0.024064984 -0.12045577
-0.11728008 -0.009050574 -0.0010367605 -0.046411507 0.040529802 -0.05859776 -0.012012667 -0.10113922
0.031509962 0.05315162 -0.093694575 0.09939634 -0.02188336 -0.11205631 -0.08516762 0.06825226
-0.068963446 -0.031724986 0.029765166 -0.118580714 -0.047056828 -0.07322442 0.088000916 -0.019921355
0.058649126 -0.09483044 0.08565034 -0.06326856 -0.012552523 -0.110325605 -0.12097869 0.092207916
-0.025055923 -0.041804973 -0.0054794974 0.07653526 -0.06721578 0.009629007 0.06680005 0.08070065
-0.03878924 -0.107055776 -0.05957566 -0.08885979 -0.060437936 -0.13117646 -0.056511015 -0.0765981
0.07289803 0.039160084 0.03351838 -0.11950424 -0.016977016 0.042703245 -0.04305574 -0.03921974
-0.11422511 0.04101743 0.06624322 0.078113005 -0.1278377 -0.034872312 0.021612698 0.03078224
-0.021736749 -0.12945083 0.072169766 0.07382621 -0.027004238 0.016126588 -0.021113329 -0.14283231
0.09533825 0.03553591 -0.07725984 -0.12980002 0.083468646 -0.0012040824 -0.073165864 0.076913916
-0.11119517 0.07255121 0.087053135 0.06790475 0.02136842 -0.0981834 -0.058336016 0.030081496
00000000: 5b44 9dbd d036 d7bc f52a 1a3d 9bc1 a83d
00000010: 2ca2 8e3d eada 333d 9959 8e3d d00c 1c3c
00000020: bcd7 d1bd f68e 20be dacb 6e3d 1bde 9e3d
00000030: 4ece 523d bff8 f1bd b4c0 cebd 3e1b 86bd
00000040: f5f6 d2bd bcf1 7fbd 1c97 4c3d 9dea 89bd
00000050: 5dd5 613d e07e c43d 47f6 e4bd 49c1 08be
00000060: 8d7e 6ebd efe2 813d ab11 52bc 51e8 0f3d
00000070: b7db 92bd c425 1d3d 19a5 81bd ff61 86bc
00000080: 2670 91bd add9 2bbd be1a 4c3d e761 663b
00000090: 37d8 4b3c c924 e3bd 1a04 1ebc 5020 efbd
000000a0: fb70 b5bd 4143 a43d 9865 f4bc 8d1a 243d
000000b0: ca40 e9bd c246 c3bd b856 70bd 7fc1 febd
000000c0: 78bf 8a3b aec5 c93d 2644 ccbc b856 263c
000000d0: 48f3 643d 24bc 0dbe b331 09be 8919 5bbd
000000e0: a057 8fbd c424 06be 67ac 3fbd 69ce f9bd
000000f0: c051 c9bd 4b48 3b3d 9da3 08bd c8e1 fbbc
00000100: 2f4a 823c c95e dd3c b27c a43d b338 fbbd
00000110: bd6b bebd f99d 063c 53fc 9b3c 6720 cebd
00000120: ecea e5bd def5 c23d 6510 41bc 15f7 a83d
00000130: a715 c3bd 68fb 2fbb 55b2 ad3c 0d9f 813d
00000140: a673 b7bc c11d 0ebb 8798 55bd f08e d7bd
00000150: 11d7 10be 7dec 0dbe f5a0 503d 5262 06be
00000160: 7792 793d 034d 613d 1a13 bc3d a824 963d
00000170: 9282 01be c98a c4bd 0506 9cbd deef 95bc
00000180: 0d71 a3bd 947f 593d f646 a4bd 2dfb 983d
00000190: ef30 92bd 2597 b63d 6ab8 ac3d a667 d33c
000001a0: c6c2 5e3d bece b83d 1c3a 72bd fee9 2dbd
000001b0: 9ff4 95bb 052b 02bb 0ea4 03be 653e d8bc
000001c0: df42 af3d 1ae5 e4bd 6d72 bb3d c920 e2bd
000001d0: 5470 8d3b d6a8 8dbd a9f5 c73d add8 04be
000001e0: 8912 acbd 72cb 3abc 83fb 943c 6d6f 06bd
000001f0: 67fb 35bd f089 63bc 8a88 ebbc 58dd e0bd
00000200: af96 13bc 0893 fbbc 7619 943b b0b8 67bc
00000210: feaf 0bbd af7a 483d dd70 0b3c 82bf 3bbd
00000220: 0139 87bc 2d23 55bd 7ccb 513d 8654 a5bd
00000230: 2913 0abd 9ebc bdbd 005d 973c 77eb 9c3d
00000240: 088c e6bb e2df bebd 6907 abbc 9592 2cbd
00000250: e731 80bd 19c2 4ebd 4c9e f8bd b103 863a
00000260: b43f e8bd 89bf e8bc cfab 123d 7fe2 d33c
00000270: 5a95 123d 2300 433d 4bff e0bd d72b 4a3d
00000280: 3637 9abd bf03 ebbd da6e 89bc 3345 e83c
00000290: b664 1f3d 7f15 d0bd ee23 c53c 84b1 f6bd
000002a0: 8a30 f0bd dc48 14bc e9e3 87ba fe19 3ebd
000002b0: 9402 263d 3404 70bd c7d0 44bc 1422 cfbd
000002c0: 9710 013d 83b5 593d f1e2 bfbd 4f90 cb3d
000002d0: bb44 b3bc c77d e5bd 5c6c aebd d7c7 8b3d
000002e0: b53c 8dbd 0ff2 01bd 14d6 f33c 72da f2bd
000002f0: a9be 40bd aff6 95bd d339 b43d 1c32 a3bc
00000300: 113a 703d 7636 c2bd 7269 af3d f292 81bd
00000310: 19a9 4dbc 64f2 e1bd adc3 f7bd 81d7 bc3d
00000320: 1442 cdbc b13b 2bbd 5b8d b3bb 85be 9c3d
00000330: 6da8 89bd fcc2 1d3c 77ce 883d 6246 a53d
00000340: 77e1 1ebd 0f40 dbbd 9b05 74bd 1ffc b5bd
00000350: c58d 77bd 1f53 06be 1878 67bd 77df 9cbd
00000360: 904b 953d 5366 203d 924a 093d a4be f4bd
00000370: 6213 8bbc 99e9 2e3d 375b 30bd e1a4 20bd
00000380: dbee e9bd e501 283d 86aa 873d b6f9 9f3d
00000390: e3e7 02be 45d6 0ebd 1d0d b13c 092b fc3c
000003a0: 4411 b2bc c28e 04be becd 933d 3232 973d
000003b0: fe37 ddbc e81b 843c dcf5 acbc a242 12be
000003c0: b340 c33d 1a8e 113d 683a 9ebd 4cea 04be
000003d0: 9cf1 aa3d 4dd2 9dba fcd7 95bd 0b85 9d3d
000003e0: 4bba e3bd bb95 943d ea48 b23d a511 8b3d
000003f0: d30c af3c 6114 c9bd bff1 6ebd 786d f63c

fc1.bias f4 [128]
-0.0151813235 -0.0813506 0.0060570617 0.021650227 -0.020165117 0.004563747 0.034719188 0.09564092
0.10994609 0.028645908 0.06837606 -0.046413388 0.048030905 0.08878437 0.0009696339 0.042490814
0.06387684 -0.00010540899 -0.06393664 -0.045987092 -0.02964402 -0.0047110943 0.02637911 0.015891276
0.008864953 0.0058458545 -0.049027566 0.0006573197 0.022431487 0.040388245 -0.0072937966 -0.062426735
0.00024580694 0.041287776 -0.0671404 -0.005230205 0.09274921 0.058431447 0.009125719 0.053634237
-0.010740847 -0.069380626 0.0049950304 -0.059935313 -0.09508014 0.027454644 -0.05139363 -0.023832386
0.032254867 -0.010224385 0.013174999 0.017121287 0.031377707 -0.03924804 -0.029082593 0.01161641
-0.018265601 0.029671732 0.0083458135 0.02613221 0.08537218 -0.05444989 0.0006377701 -0.037627768
-0.03144017 0.022177575 -0.062357992 0.008157735 0.046198055 0.03317764 0.012653135 0.05621771
-0.017603049 0.05780384 -0.020522313 -0.09327954 -0.009548458 -0.07548642 -0.0073468247 -0.0075374753
-0.060084175 0.09114485 0.05052905 0.010833277 -0.007135343 0.08655762 -0.04744675 0.07438773
-0.056647353 0.011693027 0.033030424 -0.027470691 0.020307167 0.014196767 0.09117101 -0.022032218
-0.053271405 0.06250585 0.042396907 0.08738293 0.017833566 0.028603671 0.0490451 -0.0425717
-0.07468668 -0.026463449 0.012035627 0.021627365 0.04278698 0.015434343 0.034516305 -0.0247916
-0.021127908 0.1210915 0.11421845 -0.070164084 0.00660438 -0.035091225 -0.04882397 0.001473254
0.11394155 0.020715768 0.009548792 0.0477625 -0.0004314548 -0.0042846836 -0.010746541 0.023488017
00000000: 16bb 78bc 259b a6bd 517a c63b d15b b13c
00000010: 5131 a5bc 7c8b 953b b535 0e3d 63df c33d
00000020: 6a2b e13d d3aa ea3c bf08 8c3d f71b 3ebd
00000030: 0ebc 443d 94d4 b53d 082f 7e3a d90a 2e3d
00000040: dcd1 823d 050f ddb8 37f1 82bd f65c 3cbd
00000050: 04d8 f2bc 865f 9abb 0119 d83c 6c2e 823c
00000060: 4f3e 113c 958e bf3b 21d1 48bd fa4f 2c3a
00000070: 3dc2 b73c 256e 253d cd00 efbb 2db3 7fbd
00000080: a6df 8039 5f1d 293d e880 89bd 2462 abbb
00000090: 4cf3 bd3d d055 6f3d 0a84 153c 93af 5b3d
000000a0: 61fa 2fbc 6e17 8ebd 5aad a33b bb7e 75bd
000000b0: 60b9 c2bd 90e8 e03c 2182 52bd 233c c3bc
000000c0: ae1d 043d 2e84 27bc f3db 573c f141 8c3c
000000d0: e985 003d 8ec2 20bd 9e3e eebc c152 3e3c
000000e0: bea1 95bc 2212 f33c e1bc 083c 3713 d63c
000000f0: 9cd7 ae3d d906 5fbd 0730 273a 931f 1abd
00000100: 68c7 00bd bfad b53c 186b 7fbd 05a8 053c
00000110: 2c3a 3d3d 47e5 073d 184f 4f3c 8b44 663d
00000120: 4534 90bc b8c3 6c3d 691e a8bc 5809 bfbd
00000130: 2371 1cbc a098 9abd a2bd f0bb edfc f6bb
00000140: d31a 76bd 27aa ba3d 8df7 4e3d 0f7e 313c
00000150: 98cf e9bb 1f45 b13d 8657 42bd 9858 983d
00000160: 0e07 68bd 1c94 3f3c e94a 073d 370a e1bc
00000170: 375b a63c 8e99 683c deb7 ba3d e97c b4bc
00000180: 1e33 5abd 1103 803d 61a8 2d3d d2f5 b23d
00000190: b317 923c 3f52 ea3c 84e3 483d aa5f 2ebd
000001a0: 55f5 98bd e0c9 d8bc 1431 453c df2b b13c
000001b0: 6641 2f3d 54e0 7c3c f860 0d3d c117 cbbc
000001c0: 6f14 adbc d2fe f73d 5deb e93d 30b2 8fbd
000001d0: 8e69 d83b d1bb 0fbd a5fb 47bd 331a c13a
000001e0: 305a e93d 1db4 a93c 8972 1c3c 9ca2 433d
000001f0: e234 e2b9 8866 8cbb 4312 30bc f169 c03c

fc2.weight f4 [2, 128]
-0.020668676 -0.1661281 0.09549355 -0.15024607 0.054522444 -0.06961794 -0.18957563 0.1790336
0.012149029 -0.11991809 0.026285911 -0.10123879 0.095368594 0.1611332 0.05066083 -0.05748926
-0.08490884 0.16921628 0.17161064 0.01775789 -0.022078075 -0.14335592 0.13576987 -0.12639537
0.15446697 -0.008623179 0.04711232 -0.10287569 -0.015389136 0.04072498 -0.10985517 -0.12540273
0.10986956 0.2025583 0.07853037 -0.06855775 0.17443877 0.15419385 0.110184856 -0.075036794
-0.09174028 -0.16679874 0.0011953779 0.0761635 -0.116691746 0.07011076 0.16126849 0.12599652
0.14045295 0.09881873 -0.20782079 0.13121042 -0.09222758 -0.094995975 -0.16201085 0.1525253
-0.20319103 -0.15249513 -0.046958394 -0.103274934 0.18751141 -0.03847048 0.030811092 -0.13810615
-0.1631002 0.007809798 -0.22870636 -0.008380507 -0.13623655 0.14779274 0.089935645 0.07835394
-0.13371392 0.19279976 -0.12431947 -0.219555 -0.034424838 0.075677074 -0.28733426 0.007428472
0.17612639 0.25835237 -0.15802568 -0.12423897 0.09613747 0.2658654 0.09975344 -0.018339137
0.04063695 -0.14446527 0.10625026 0.03289991 0.086418234 -0.14388211 0.16048467 -0.041686714
-0.1658977 0.14521319 0.135498 0.12840416 -0.16908666 -0.11424133 -0.009715427 0.15170169
-0.03156277 0.16089095 -0.10851978 0.004260821 0.040370777 -0.057503745 -0.15763445 0.1917862
0.098044865 -0.012255191 0.1530558 -0.18291567 -0.067017846 0.08643982 -0.026613656 -0.017393986
0.07911807 0.21878244 -0.008904217 0.24366793 0.08451973 0.122377634 -0.024964133 -0.11662086
-0.061152965 -0.15946093 -0.17941938 0.0127523225 -0.07978548 -0.063284665 -0.16012022 -0.007802263
-0.1439192 -0.0899 -0.14792822 0.067855276 0.12179512 -0.09955656 -0.10361431 0.13033101
-0.048303213 -0.148579 -0.13751465 -0.15961581 -0.033943262 0.04340311 0.20629898 0.08773218
-0.13768578 0.22341466 -0.10903464 -0.011349012 0.12772469 -0.06870723 -0.06378672 -0.026005033
-0.029973688 -0.064088635 0.20064107 -0.028358141 -0.04874238 -0.11285045 -0.1244081 -0.113561794
0.12594308 -0.17205217 0.2098576 -0.026684685 0.09710421 -0.05420674 -0.15237898 -0.18005216
-0.019164644 -0.12731539 0.10505301 -0.11532295 -0.013623868 -0.04174939 -0.038767215 0.18330096
0.17256239 0.008715543 -0.089644045 0.14321102 0.037910644 0.15686366 -0.112327375 0.01457284
0.24115612 -0.21090223 -0.055199217 -0.02178903 -0.08573041 0.14989793 -0.18701246 -0.07404537
-0.18857732 -0.13159251 0.054547094 0.0053791483 -0.093755275 0.16772361 0.012390053 0.0036263776
0.17534074 0.012697781 0.10679048 0.17185368 0.1058844 -0.10478199 0.04741431 -0.19848853
-0.1376631 -0.12749763 -0.043406513 0.045211427 -0.16109575 0.075770035 -0.14061926 -0.16153274
0.14930986 0.010593989 -0.06877063 -0.028697662 0.07426165 0.116735056 -0.15683013 -0.049118344
0.13894263 -0.096777536 -0.07874965 0.02290809 0.03262602 -0.11935731 0.15526392 0.11793523
0.17643787 0.22894214 -0.04940408 0.058762267 0.21840493 0.029328348 0.058358923 -0.112243615
-0.19044855 0.010534984 -0.07693206 -0.26443228 -0.16730542 0.052929167 0.16214791 0.078299865
00000000: 5b51 a9bc 7c1d 2abe 1f92 c33d 1bda 19be
00000010: ed52 5f3d da93 8ebd 1d20 42be 9654 373e
00000020: b90c 473c 9e97 f5bd 8d55 d73c 4856 cfbd
00000030: 9c50 c33d 1a00 253e bb81 4f3d dc79 6bbd
00000040: b0e4 adbd 0847 2d3e b3ba 2f3e ff78 913c
00000050: 14dd b4bc e5cb 12be 4207 0b3e ca6d 01be
00000060: 972c 1e3e 3c48 0dbc d9f8 403d 7db0 d2bd
00000070: b722 7cbc 3dcf 263d bffb e0bd 9369 00be
00000080: 4b03 e13d 716b 4f3e 88d4 a03d 0168 8cbd
00000090: 14a0 323e fee4 1d3e 99a8 e13d e4ac 99bd
000000a0: 54e2 bbbd 4acd 2abe 3aae 9c3a 9cfb 9b3d
000000b0: 15fc eebd 3b96 8f3d 9123 253e 3b05 013e
000000c0: e6d2 0f3e 7961 ca3d f9ce 54be 065c 063e
000000d0: d0e1 bcbd 408d c2bd 2ce6 25be 982f 1c3e
000000e0: 4f11 50be af27 1cbe 7257 40bd cf81 d3bd
000000f0: fe02 403e 3993 1dbd 8b67 fc3c b36b 0dbe
00000100: bd03 27be 55e9 ff3b 0032 6abe 654e 09bc
00000110: 9881 0bbe fb56 173e 2e30 b83d 0878 a03d
00000120: 4dec 08be 4d6d 453e 359b febd 07d3 60be
00000130: 0f01 0dbd 95fc 9a3d 7a1d 93be 8a6a f33b
00000140: 7a5a 343e c346 843e 7cd1 21be 0071 febd
00000150: b9e3 c43d 821f 883e 884b cc3d f53b 96bc
00000160: ee72 263d b4ee 13be bc99 d93d 0ec2 063d
00000170: 0bfc b03d d555 13be 1856 243e b0bf 2abd
00000180: 16e1 29be c4b2 143e fdbf 0a3e 617c 033e
00000190: 0e25 2dbe 5cf7 e9bd 742d 1fbc b057 1b3e
000001a0: f747 01bd 99c0 243e 9e3f debd 5b9e 8b3b
000001b0: d45b 253d 0c89 6bbd ed6a 21be 9a63 443e
000001c0: bfcb c83d ffc9 48bc a9ba 1c3e 3f4e 3bbe
000001d0: a740 89bd 5c07 b13d e204 dabc d57d 8ebc
000001e0: a808 a23d 8108 603e fee2 11bc 1684 793e
000001f0: ae18 ad3d 20a1 fa3d 9581 ccbc ebd6 eebd
00000200: 887b 7abd ba49 23be b7b9 37be 1eef 503c
00000210: 9266 a3bd 649b 81bd 8ef6 23be 20aa ffbb
00000220: 8e5f 13be 7e1d b8bd 7f7a 17be b5f7 8a3d
00000230: b86f f93d 4fe4 cbbd bd33 d4bd 7e75 053e
00000240: 97d9 45bd 1825 18be a4d0 0cbe 5472 23be
00000250: 1708 0bbd 76c7 313d 0a40 533e eeac b33d
00000260: 80fd 0cbe d0c6 643e 8e4d dfbd 35f1 39bc
00000270: 43ca 023e 60b6 8cbd 9da2 82bd 8208 d5bc
00000280: 618b f5bc e740 83bd da74 4d3e 554f e8bc
00000290: 17a6 47bd 231e e7bd adc9 febd 1693 e8bd
000002a0: 39f7 003e 722e 30be e9e4 563e d799 dabc
000002b0: 92de c63d e307 5ebd 3c09 1cbe 985f 38be
000002c0: 2cff 9cbc f75e 02be 0826 d73d 702e ecbd
000002d0: a536 5fbc 6901 2bbd 5fca 1ebd 3fb3 3b3e
000002e0: 32b4 303e a3cb 0e3c 4c97 b7bd e9a5 123e
000002f0: 3148 1b3d dea0 203e e50b e6bd ecc2 6e3c
00000300: a1f1 763e c1f6 57be 9318 62bd e87e b2bc
00000310: 6d93 afbd d87e 193e 3280 3fbe 19a5 97bd
00000320: 6a1a 41be 30c0 06be c66c 5f3d 9143 b03b
00000330: c402 c0bd bdbf 2b3e a6ff 4a3c 85a8 6d3b
00000340: 868c 333e 5b0a 503c f8b4 da3d 69fa 2f3e
00000350: ecd9 d83d f197 d6bd 8235 423d 9440 4bbe
00000360: 8ef7 0cbe bd8e 02be 07cb 31bd 9e2f 393d
00000370: 49f6 24be 522d 9b3d 7ffe 0fbe d768 25be
00000380: afe4 183e 6992 2d3c 9ed7 8cbd 5c17 ebbc
00000390: 7e16 983d ca12 ef3d 1498 20be 5130 49bd
000003a0: fa46 0e3e 4d33 c6bd 7f47 a1bd bfa9 bb3c
000003b0: dda2 053d 9b71 f4bd 81fd 1e3e 0788 f13d
000003c0: 21ac 343e cf6f 6a3e ef5b 4abd b4b0 703d
000003d0: 8ba5 5f3e 0142 f03c c409 6f3d fbdf e5bd
000003e0: f204 43be ed9a 2c3c 8e8e 9dbd ab63 87be
000003f0: 1d52 2bbe 41cc 583d 1a0a 263e ae5b a03d

fc2.bias f4 [2]
-0.016229164 -0.015282402
00000000: 06f3 84bc 0a63 7abc
